model.ckpt (torch_old, 118581 bytes, 14 tensors)

layer1.0.weight f4 [16, 1, 5, 5]
00000000: 4272 3e3e a2eb 55bc 3197 373e 08f7 f63c
00000010: e1af dbbd 3e2e 93bd f40e 74bd c81e f8bd
00000020: 4b67 46bd 84d9 48ba 3e9b b5bd 6238 1cbe
00000030: 9479 b23c 7eec 783c 7497 fc3d fabd 3ebe
00000040: 7e56 ffbd 59e7 263e d499 223d 8f91 253e
00000050: ca84 463e 15b0 1b3d f4df 023e b85e 55be
00000060: 8eef 61be 8cf3 013e 6430 133e 2035 d0bd
00000070: 9c3b f6bd 5507 3f3e 1a9b 52be 6bd5 b0bc
00000080: 72fa a5bc 273f 7bbd da9a cc3d 6ba1 823d
00000090: 9cf3 74be 48ee 40be 4209 95be 8ce1 43be
000000a0: 7138 68bd a93f 5d3d 4aa6 263e 6eee ec3d
000000b0: 7df4 e2bd 5313 583d 7f7e a73d 2ef4 483e
000000c0: ab0d 40bc 3bac f13c 9cab 19bd 0e3a a93d
000000d0: 37e2 413e 3e59 12bd 9e81 35be 056b 8fbd
000000e0: d44e 883c bd75 c9bd c8e2 2cbc 5a4a 27be
000000f0: 88cb 4fbe 4440 a1bd c09d 023e acb2 25bd
00000100: 0b39 e6bd da42 efbd 1e39 97bd 0671 93bd
00000110: 1594 efbd 1136 6dbe 4486 243e b056 d03d
00000120: 33dd 1c3d db18 563e 6f72 0bbe 6b76 de3d
00000130: ea09 c93b 113a 853c 5022 1d3e 28cb 35be
00000140: 47b7 2ebc 8b0e 103d c565 4dbd 351a 5e3d
00000150: d0e3 f4bd 43e5 86bd 14f4 2dbe 4f33 433e
00000160: ccb0 7cbc 90fb 24be 1067 e2bd 8baf 33bc
00000170: bc68 653e 5a93 38be 3917 8cbd 7c00 82be
00000180: e7bd 103d d886 173e 0fad 583d 19ab 2abe
00000190: 7e89 693d 8193 523e 479c e23d 8811 ea3c
000001a0: 883f c1bd 5781 483b 6e5b ef3d 3970 edbd
000001b0: 7e1d aa3b b856 c8bd dee3 44be 252e 4abd
000001c0: 4225 b2bc fd88 85bd 71ca 29be 9b7b 023d
000001d0: c14f ddbc 4574 0b3d 4ce1 5abc 6df9 2a3e
000001e0: a7ff 163e 3d0e c13d bc25 0c3e bd4d a93c
000001f0: 13e5 4b3e 3b81 3abe 3070 afbd f560 c53d
00000200: 2f6b f43d 3c80 043e 2761 24be 55bc e4bd
00000210: 52ce b6b8 e6fd 06be 65ec 483e 1dde 88be
00000220: fdb9 073d 5ad5 4b3e 488e b93d 6036 48bd
00000230: f814 dfbd f618 e0bc c1af 153e f994 f4bc
00000240: 6b18 073e 47d2 2dbe 2a23 64bd b590 4c3e
00000250: 885b ccbd ad63 c0bd 666a 423c d53d 4ebd
00000260: fe60 f13d 60f4 04bc 0e6a d1bd 6813 a0bd
00000270: 3c75 e03c bd41 163e 6e03 dbbc 204d 13be
00000280: 5457 0a3e 1527 413e 75f3 88bc ca75 953c
00000290: 2904 40be aca8 833d c339 4b3d fdd0 11be
000002a0: 59b6 2dbc d188 adbd 0e9a 26bd b960 0bbe
000002b0: 2cb6 7c3c 9e73 1bbe 1a46 09be dffc 0f3d
000002c0: 080f d6bb 4746 3c3e bf42 e2bd 5d98 3f3d
000002d0: 206d 8ebc fc14 b43d 70ac fdbc f96e de3d
000002e0: 6e9c ecbd 2418 ac3d 0c91 e13d 384a 08bd
000002f0: 823a 70bd c66b 47be 3998 10be b6a7 08be
00000300: 536e 76be 20be cfbd 9ce2 ccbc d664 b0bd
00000310: 38ed 80be 5095 54bc a74e 1b3e bd28 3d3e
00000320: c5bf c4bd ce79 41be 73e7 c0bd d61b 883b
00000330: e885 e83d adcf 0d3b b793 be3d f73b b5bd
00000340: 745c d9bd 6916 c33d 1d2a 62be 882e e0bd
00000350: a05c 87be ff19 143e b3e6 2e3e 8bb1 46be
00000360: e113 67be 6a39 023e b5c7 1dbc a288 0e3e
00000370: e7a4 88be 1b35 cd3d f654 a6bd 324d 1c3e
00000380: 9257 a53d 5ffb f23d 9160 f33a 1b06 6cbd
00000390: 9e10 04be b174 8cbe 450a 8ebd eb00 a43d
000003a0: 9e2a 1b3e dacd c4bc 5614 e83d 3202 80ba
000003b0: 0ec8 e93d aca2 12be d42d 30be 73bf 01be
000003c0: 22ff 80bd 774d 1f3e 5e1d 5a3e 0374 5bbb
000003d0: 46a4 9d3d 357a 15be e78e 2ebe aac2 363e
000003e0: 6d03 373e 2001 45bd b00a 3b3d 8203 8e3d
000003f0: 1525 c73c e7e8 823d 8861 133e 4cbd afbd
0.18598273 -0.0130566675 0.17928769 0.03014709 -0.107269056 -0.07186554 -0.059584573 -0.12115246
-0.04843835 -0.0007661807 -0.08867501 -0.15255883 0.021786489 0.015193103 0.12333575 -0.18627158
-0.12467669 0.1629919 0.039697483 0.16168807 0.19386593 0.03800972 0.12780744 -0.20836914
-0.22064039 0.12690562 0.14373928 -0.10166383 -0.12023088 0.1865514 -0.20566979 -0.02158614
-0.020261023 -0.061339524 0.09990473 0.06378444 -0.23921055 -0.18840897 -0.29108626 -0.19129008
-0.05669445 0.05401579 0.16274372 0.11568914 -0.11081789 0.052752804 0.08178424 0.19624397
-0.011722009 0.029501071 -0.037517175 0.08263026 0.1893395 -0.03572964 -0.17725226 -0.07002834
0.01663915 -0.0983691 -0.010552116 -0.16336957 -0.20292485 -0.07873586 0.1275549 -0.040453598
-0.11241349 -0.11682673 -0.07383941 -0.07199292 -0.11698166 -0.23165156 0.16066843 0.10172784
0.03829689 0.20907919 -0.13617872 0.1086243 0.006135215 0.01626304 0.1534512 -0.17753279
-0.010663814 0.03517012 -0.050145883 0.05422421 -0.11957514 -0.06586697 -0.1698764 0.19062541
-0.015423011 -0.16111588 -0.11054814 -0.010967146 0.22403234 -0.1802496 -0.06840367 -0.25390995
0.035337355 0.14797533 0.052899417 -0.16666831 0.05701589 0.20564081 0.11064964 0.028572813
-0.09435946 0.003059467 0.11687361 -0.115936704 0.005191504 -0.09782165 -0.1922755 -0.049360413
-0.021746282 -0.06520269 -0.16581132 0.03185616 -0.027015569 0.03404643 -0.013359379 0.16696711
0.14745961 0.09426544 0.1368627 0.020666951 0.19911604 -0.1821336 -0.0856632 0.09637634
0.11934506 0.12939543 -0.16052686 -0.11168734 -8.7168664e-05 -0.13182792 0.19621427 -0.2673196
0.033136357 0.19905606 0.09060341 -0.04887998 -0.10892671 -0.027355652 0.14617826 -0.029856192
0.13192908 -0.16974746 -0.055697598 0.19977076 -0.09978396 -0.09394012 0.011866188 -0.050351936
0.11786078 -0.008114904 -0.102253065 -0.078162014 0.027399652 0.14673515 -0.026735034 -0.1438489
0.13509876 0.18862565 -0.016717652 0.018244643 -0.18751587 0.06428656 0.049615633 -0.14239879
-0.010602557 -0.08473361 -0.04067426 -0.13611116 0.015424293 -0.15180823 -0.13405648 0.035153266
-0.0065325536 0.18386184 -0.11047887 0.046776164 -0.01738602 0.08793065 -0.030966014 0.1086101
-0.11553274 0.08403042 0.110139936 -0.033273906 -0.058649547 -0.19474706 -0.14120568 -0.13345227
-0.24065523 -0.10143685 -0.0250104 -0.08612983 -0.25180984 -0.012975052 0.15166722 0.18472572
-0.0960689 -0.18894121 -0.094191454 0.004153709 0.113536656 0.0021638677 0.09305518 -0.08849328
-0.10613337 0.09525759 -0.22086377 -0.10946375 -0.26437855 0.14463042 0.17080192 -0.19403665
-0.22566177 0.12717214 -0.009630133 0.13919309 -0.2668831 0.10019895 -0.08121674 0.15263823
0.08073343 0.118643515 0.0018568208 -0.05762301 -0.12896964 -0.27432778 -0.069355525 0.080079876
0.15152976 -0.024023939 0.11332004 -0.0009766279 0.114151105 -0.14319867 -0.17204982 -0.12670688
-0.06298663 0.15556894 0.21300265 -0.0033485896 0.07697348 -0.145974 -0.170467 0.17847696
0.178724 -0.048096776 0.04566449 0.06934263 0.024309674 0.06392079 0.14392674 -0.085810274

layer1.0.bias f4 [16]
00000000: bc1c 6d3c 7979 403d d2b2 a43d a93a 113e
00000010: 7f19 1ebd 9dcf 39be a921 febc 4247 0abe
00000020: d158 f93d ee2f 6dbe 1b7d 64be f65b 383c
00000030: 0819 4f3e cb6f cdbd 7ee9 dc3d a421 a3bd
0.014472183 0.046990845 0.0804192 0.14182533 -0.038598534 -0.18145604 -0.03102191 -0.13503745
0.121751435 -0.23162815 -0.22313349 0.011252394 0.20224392 -0.100310884 0.107867226 -0.07965401

layer1.1.weight f4 [16]
00000000: e96f 3e3f 5de8 4d3e b1a6 023f 4452 593f
00000010: 529f 433e 2c69 3f3f c17a 503f e3a9 083f
00000020: 2276 ee3e 4ef6 c13e 721a cc3e 39dc c53e
00000030: 24c7 f03e b4af 743f 0516 1d3e 0e8f c43e
0.7438951 0.20108171 0.510356 0.8489115 0.19103745 0.74769855 0.8143731 0.53384227
0.46574503 0.37883228 0.39863926 0.3864458 0.47026932 0.955806 0.15340431 0.38390392

layer1.1.bias f4 [16]
00000000: d06e 93be 08e1 54bd d280 d4bd c30d 86be
00000010: 1b49 84be 1660 e7bd 718b 1ebe 3dd2 c3bd
00000020: 23c3 88bd 3694 85be c0dc b6bd 48f0 13be
00000030: 67f9 99be b84a 50be bdfc 113c 56d1 28bd
-0.2879548 -0.05197242 -0.10376133 -0.26182374 -0.25837025 -0.11297624 -0.1548288 -0.09561584
-0.066778444 -0.26089638 -0.089288235 -0.14447129 -0.3007309 -0.20341003 0.008910355 -0.041215263

layer1.1.running_mean f4 [16]
00000000: 467f 88bb be94 a13a 5c59 ebbc 5d0d 9b3d
00000010: 0f85 003d 0930 5abe 6c9a c9bd 4ded 5abe
00000020: 2edd dd3c f68b 70be 1b22 85be 1a73 b7bd
00000030: cf4e 913e 5685 32be fc02 a239 a077 eebd
-0.004165563 0.0012327654 -0.028729133 0.07570908 0.031376895 -0.21307386 -0.09843907 -0.21379586
0.027083006 -0.23490891 -0.26002583 -0.08957501 0.2838044 -0.17433676 0.0003090127 -0.116439104

layer1.1.running_var f4 [16]
00000000: 13e7 833c eff5 083d 7563 563d 1415 de3c
00000010: ebe7 f53c 21f5 723d 1710 3f3d d7be 503d
00000020: 1324 e73d 1e1f 9e3c 9435 853d 82f5 b03d
00000030: 0e0b f93c 39b8 213d e592 d23d 1056 8d3c
0.016101396 0.033437666 0.052340943 0.02710966 0.030017814 0.059315804 0.046646204 0.05096325
0.112861775 0.019301947 0.0650436 0.08640577 0.03040078 0.03948233 0.10281924 0.017252952

layer2.0.weight f4 [32, 16, 5, 5]
00000000: 4b48 9a3d c6cb a53d c632 1fbb f31e 06bd
00000010: e771 b53c c328 063d 4f4f 8b3d c076 2ebd
00000020: b8ce 1b3d 0f5f 293d 36b0 7a3b 3164 4abd
00000030: 4d7f 1bbb acf7 28bd 31db b63d ce45 753d
00000040: 8e84 bcbd 9a77 5e3c 1add 9b3d bf22 2b3d
00000050: 3006 cf3c b302 db3c add7 ac3d ae9d 17bd
00000060: 367e fd3c 9b91 a53d b493 643c bc10 3abd
00000070: bc39 edbd 438f a23d 9b4f 40bd 5bb2 0b3d
00000080: 296b 933c 8219 bfbb d67e 5fbd 4fe3 0c3e
00000090: 2294 5abc 23a7 71bd 1450 cdbd f6e7 f1bd
000000a0: 5e6d 6f3d c31d 9bbb 3795 3fbd 8455 3bbd
000000b0: 52d9 443c f28b b9bc e9ec babc 66c0 09bd
000000c0: 062e cd3c a982 bd3d f65b 0dbe 11fa c4bd
000000d0: 1cf4 06be e494 6abe a3ba b1bd 0b62 553d
000000e0: 637d ef3c 8af5 adbc 7ebb 7bbd 085a 91bd
000000f0: 2f31 d9bc 356e d93c 5ece 443c f57a fa3c
00000100: 204c 9ebd c558 f63c ce98 ea3c 0d68 9c3c
00000110: 1896 e0bd 1d0c f4bd 51f6 523b 4dfd ccbd
00000120: e2fb 52bd e7d5 2bbe c3eb fb3b 4cea bebd
00000130: aa93 a2bd 6066 28bc fd39 cf3c 0a61 57bc
00000140: 4964 a4bc 1332 2d3d 3c82 f03c c72c a53d
00000150: 2461 913d d0cb ba3d 2df1 73bd dd85 b13d
00000160: 00a8 ee3d c96d aa3c a18f 8b3d 1a4f cabc
00000170: dbd3 3b3d 3225 1abd 9308 b4bd febd 3abc
00000180: 0cd2 c0bd 4fa1 91bd 01ac 9dbd 59e8 0bbc
00000190: fe6c 15bd 0cd8 b0bd 1a15 853b f1f8 b63c
000001a0: fd48 54bb 363f 8bbd 0531 163c 0431 5d3c
000001b0: 903e 85bd 1b55 1ebd 6a37 693d 5555 663d
000001c0: b024 82bd e128 eb3c d4e2 653d 3dcd d03d
000001d0: fe99 803d 0897 a93c ce12 9f3d 4876 263c
000001e0: 3831 933c 3259 5f3d d937 633c f821 a3bc
000001f0: dbdb 28bd cd0c d03a 92dd abbc e5d5 b3bc
00000200: 5a46 3bbd 5335 2c3c d2b2 31bd 8af8 a93b
00000210: 20c6 a2bd 5503 523d aaff 963d 6fab b03c
00000220: e341 11bc b9d7 3a3c a5ce b03d 9fd1 afbc
00000230: 6eb3 253d 7bd4 883d e78e 683d 8cce 863d
00000240: 3f6f 763b ce01 f43c e8aa 263d 9406 773c
00000250: d479 fe3c 7bd8 99bc 4091 04bd 6a69 1dbd
00000260: aa00 7cbd bc87 12bd cfe7 083d 9323 033c
00000270: caae 53bc a7fd 0fbd ad7e 3d3d 33d7 0d3d
00000280: 89a9 c2bc 5f84 f8bc a615 1f3d 0529 bb39
00000290: a4af b0bd 69cf 243c 85c9 8a3d 163a 553d
000002a0: b726 1dbe bba8 b8bd 88a6 5b3d 05d7 b83c
000002b0: b6eb 95bd c45d 4cbd bc04 d73c 4f8f 193d
000002c0: 2adb 0abd 11ae 193d 6362 c03c ecf3 e03c
000002d0: c000 9e3d e585 b4bc c13c 10bd 6b3a e3bd
000002e0: ef45 d9bc 06a5 31bc b60b 0cbe 5669 cebd
000002f0: 7bfb 57bd a668 c4bc 12f1 0cbe e3c4 1fbe
00000300: 3cb0 ccbd 847e c1bd 387a 98bd 2f3d 903c
00000310: 77dc 40bc 39ee 39bc bc54 0a3d a2c4 de3d
00000320: 1c3e 45bc 6745 06bc 5765 71bd d9d1 913c
00000330: dbf7 bc3d 22cb 13bd e502 80bd a842 6a3d
00000340: d21f 973d e016 523d ad1d 6e3b c84f 5abb
00000350: e146 eb3d a097 fe3c d650 a1bd 2407 0dbc
00000360: 4b4d 1c3d a6fd 633d 1829 c7bc 9f73 3fbd
00000370: 9a90 333d 0f34 8fbc aeee 0ebd 0d80 7ebd
00000380: 4872 013d 1ac1 503c 7bc6 603c b3d6 56bc
00000390: 83aa e83c 46db c1bc aa4d 023d 67db a0bc
000003a0: 739c 543d 726d dcbc 5309 843d 157b 9a3c
000003b0: 6ef1 1a3c 512a 043d 0cde 973d 41b1 333d
000003c0: 266f 363d 6273 21bd dca4 003c 293e 573d
000003d0: f26d 863d b01c 2abc ee8f b8bb f64e 2bbc
000003e0: f9b4 963d 2213 5ebd 6554 cf3c b95e ea3c
000003f0: d7b3 3e3d 87c4 95bc 1de0 bbbd 9be3 403c
0.0753332 0.08095507 -0.0024291738 -0.03274436 0.02214904 0.032753717 0.06802236 -0.042593718
0.03803894 0.04135042 0.0038252003 -0.049411956 -0.0023727 -0.041251823 0.08928526 0.059881024
-0.0920497 0.01357832 0.07610531 0.041781183 0.025271505 0.026734686 0.084395744 -0.03701561
0.030943971 0.08084413 0.013951231 -0.045426115 -0.115832776 0.07937481 -0.046950918 0.03410564
0.017995434 -0.005831898 -0.05456432 0.13758586 -0.013340982 -0.058997285 -0.10025039 -0.11811821
0.05845391 -0.0047337725 -0.04677316 -0.04573585 0.012014704 -0.022649739 -0.022818046 -0.03363075
0.02504636 0.09253437 -0.13804612 -0.09618009 -0.13179058 -0.2290836 -0.08678176 0.052095454
0.029234594 -0.021235246 -0.061458103 -0.0709725 -0.02651271 0.026541809 0.012012092 0.030576209
-0.077293634 0.030071625 0.028637316 0.019092584 -0.10966128 -0.11916373 0.0032190273 -0.10009251
-0.051509745 -0.16780816 0.007688017 -0.09322032 -0.07938321 -0.010278314 0.025296206 -0.0131456945
-0.020067351 0.042284083 0.029358976 0.08065181 0.07098606 0.091209054 -0.059556175 0.086681105
0.11653137 0.020804303 0.068145044 -0.024695922 0.045856338 -0.03763313 -0.08790698 -0.011397837
-0.09415063 -0.07110845 -0.07698823 -0.008539283 -0.036480896 -0.08634958 0.0040613534 0.022335501
-0.0032392137 -0.06799166 0.009166961 0.013500456 -0.065060735 -0.03865538 0.056937613 0.056233723
-0.06354654 0.028706016 0.056124523 0.10195396 0.06279372 0.0207019 0.077672586 0.010160036
0.017967805 0.054528423 0.013868296 -0.019913658 -0.041225296 0.0015872956 -0.020979676 -0.021952579
-0.04572139 0.01051076 -0.043383427 0.005187099 -0.079479456 0.05127271 0.07372983 0.02156612
-0.008865806 0.011403971 0.08633164 -0.02146226 0.04045432 0.066811524 0.056776907 0.065823644
0.003760293 0.029786017 0.040690333 0.015077252 0.031063952 -0.018779984 -0.032365084 -0.03843061
-0.06152407 -0.035773978 0.033424195 0.008004087 -0.012920091 -0.03515401 0.046263386 0.034629058
-0.023762481 -0.030336557 0.038839005 0.0003569798 -0.08627251 0.010059216 0.06776718 0.05205735
-0.153468 -0.09016558 0.053625613 0.022563467 -0.07320349 -0.04989411 0.026247375 0.037490185
-0.033900417 0.03751952 0.023484414 0.027460061 0.07714987 -0.022036502 -0.03521419 -0.11095127
-0.026522605 -0.010842567 -0.13676342 -0.10078685 -0.052730065 -0.023975682 -0.13763836 -0.1560245
-0.099945515 -0.09447959 -0.074451864 0.0176073 -0.011771313 -0.011348301 0.033772215 0.108773485
-0.012038734 -0.008195258 -0.058934536 0.017800258 0.09226962 -0.036082394 -0.06250552 0.057192475
0.07379116 0.051291347 0.0036333606 -0.0033311713 0.114881285 0.03107816 -0.07876746 -0.0086076595
0.03815965 0.05566182 -0.024311587 -0.046741124 0.043839075 -0.017480878 -0.03489559 -0.062133837
0.031603128 0.0127413515 0.013719196 -0.013112712 0.028401619 -0.023664128 0.031812347 -0.01963587
0.051907014 -0.026907656 0.06447091 0.018857518 0.009456975 0.03226692 0.07415399 0.043870214
0.044539593 -0.03941668 0.007851806 0.052549515 0.06563939 -0.010382816 -0.005632392 -0.0104558375
0.073587365 -0.054217465 0.025308797 0.02860962 0.046558227 -0.018282188 -0.091736056 0.011773015

layer2.0.bias f4 [32]
00000000: 6c65 ea3b bf54 173b 397d f03c c620 04bd
00000010: b697 62bb ded6 4dbd 99e2 c9bc 0c1a 953c
00000020: f459 c13b 81e2 71bc 5ba5 0cbd 2f31 913b
00000030: 8b84 a13c d98a fd3b d9b4 1c3d fa99 273d
00000040: 673e 45bc dd30 50bb bff9 473c 5da5 05bd
00000050: 39e1 15bd 9879 70bc 310f c43c 2996 e53b
00000060: 2ae6 22bc 7d59 1abd d340 813b 9393 8dbc
00000070: b9a3 6a3b f629 fb3c 2e14 fabc 56c2 8cbb
0.0071532037 0.0023091284 0.029356586 -0.032257818 -0.003457529 -0.05025374 -0.024644183 0.018200897
0.005900616 -0.014763475 -0.034337383 0.004430912 0.019716522 0.007737499 0.038258407 0.040918328
-0.012038804 -0.0031767406 0.01220554 -0.032628406 -0.036591742 -0.014677428 0.023933025 0.007006426
-0.009942571 -0.037683 0.003944495 -0.017282283 0.0035803153 0.030659657 -0.0305272 -0.0042956276

layer2.1.weight f4 [32]
00000000: a24d 3e3f eded af3e 01e0 2a3f 27d6 033f
00000010: c96e ed3e 25e5 473f 69b6 453f f1b6 493f
00000020: 82cc 813f 489f 733f 2dd3 723f f677 8e3f
00000030: f7aa 603f f194 073f cff3 1d3f 38a2 063f
00000040: 9793 293f 18e1 113f dbba 723f fff6 433f
00000050: 92ce 493f c2c9 803f 262b 943f d321 443f
00000060: 5c99 823f b874 0e3f 8478 803f 1d91 bb3e
00000070: 5170 0d3f 3117 3a3f 5471 943f 85a6 443f
0.7433721 0.3436121 0.6674805 0.51498646 0.46373585 0.7808402 0.7723146 0.7879477
1.0140536 0.9516492 0.9485348 1.1130359 0.8776087 0.5296164 0.6170015 0.52591276
0.6624083 0.5698409 0.9481637 0.7654876 0.78830826 1.0061572 1.1575668 0.7661411
1.0203052 0.5564685 1.0036778 0.3663415 0.55249506 0.7269164 1.1597085 0.7681659

layer2.1.bias f4 [32]
00000000: 1e8c bfbd 0ae0 0fbd ea6e 04be 0957 85bd
00000010: 1341 e8bc 40ef b4bc 917d 92bd 9d56 98bd
00000020: 790c 5fbd c786 66bd cd5a d6bd ee35 3cbd
00000030: 0d5e f83c 13b9 79bd d35a 14bd 50f9 b53b
00000040: 2a66 b6bd 0df4 3cbd 26ab f4bc fbf8 03be
00000050: 294f 09bd bf0a d4bc 876d eebd 6325 6e3c
00000060: fdce 21bd a42f 45bd b698 a8bd 32b6 86bd
00000070: 4e6f 49bd 5be9 35be 11d9 1ebd 18a0 52ba
-0.09352897 -0.03512577 -0.12932935 -0.06510741 -0.028351342 -0.02208674 -0.07152856 -0.07438395
-0.054455254 -0.056280877 -0.104665376 -0.04594987 0.030318284 -0.060967516 -0.03621943 0.005553402
-0.08906205 -0.046131182 -0.029866766 -0.12887947 -0.03352276 -0.02588403 -0.116419844 0.014535281
-0.03950404 -0.048141137 -0.08232252 -0.0657772 -0.049178414 -0.177648 -0.03878123 -0.000803472

layer2.1.running_mean f4 [32]
00000000: 91f4 41be 9af5 babd f30c 853d b2a7 9cbd
00000010: 77e1 bc3d 77ab a73d f397 0abe 1ce9 7b3d
00000020: 5b39 f6bd e104 8f3e 0ef5 26be 29f1 083d
00000030: 21aa 3d3d 454e 3b3e 36ae 293d c01c 483e
00000040: 4d27 4cbc 6f40 1ebe e800 30bd a835 5ebd
00000050: e925 b7bd 1818 463c a03b 67be ce0e a83d
00000060: c812 403e 9177 803e 3963 39be 8fe3 40be
00000070: bd26 c73d 31a0 57be d5cc 5d3d 0a36 c33d
-0.18940951 -0.09128876 0.064966105 -0.07649173 0.092226915 0.08187001 -0.13534527 0.061501607
-0.120226584 0.2793341 -0.16304418 0.033433113 0.046304826 0.18291576 0.041425906 0.19542217
-0.012460542 -0.15454267 -0.042969614 -0.05425039 -0.08942778 0.012090705 -0.22581339 0.08205949
0.18757164 0.25091222 -0.18104257 -0.18836807 0.097241856 -0.21057202 0.05415042 0.095317915

layer2.1.running_var f4 [32]
00000000: 5387 1a3e 7603 623e cef4 7b3e 18be 353e
00000010: ee3b 713e 6e88 933e 9ea2 613e 5541 513e
00000020: 302e 8a3e e788 0a3e 902a 333e 6f95 4d3e
00000030: cefb 623e f5e9 5f3e 7505 6a3e b7be 433e
00000040: 7f64 4a3e c389 2b3e ef0b 903e 55e1 643e
00000050: 3363 b83e 3adb ac3e c929 393e 9e5b 8b3e
00000060: 5510 243e f7e6 5d3e 861d 703e 2d5d 863e
00000070: ece9 6f3e e4a9 373e 5513 4c3e dcf3 863e
0.15090685 0.22071633 0.24605104 0.17748296 0.23558018 0.28815025 0.2203469 0.20435078
0.26988363 0.13528787 0.17496705 0.20076536 0.22166368 0.21866591 0.22853644 0.1911572
0.19764899 0.1675177 0.28134105 0.22351582 0.36013183 0.33761007 0.18082346 0.27218336
0.16021855 0.21670137 0.23448762 0.26242962 0.23429078 0.17935902 0.1992925 0.26357925

fc.weight f4 [10, 1568]
00000000: 7a4c 003d e6ce d3bc ab5c 02bd b2e1 bcbd
00000010: 2b79 39bc d231 3bbd 3b9a d33c 54f4 5abd
00000020: 5f61 2dbd 1cff 5abd 23ee 7dbc 916c 02be
00000030: 1bcb 0dbc b495 7b3d 36d9 72bd e48a 423c
00000040: 230b 413d cdd1 ce3c 4807 0e3d ac83 9c3d
00000050: 8d8f 163d 2eb5 9f3d f867 b938 c474 c1bb
00000060: f1e0 d73d b6ab 623d 74d6 23bc 3151 943b
00000070: 8351 d43c 8638 503c 66c9 d53d af24 69bd
00000080: a480 a13a 608d 83bd 1a99 c6bc e72d 003c
00000090: ae50 a43d 8d1e 963d b831 5ebe 3e4f c1bd
000000a0: 92b5 e8bd 0db0 49bd e4ac 00bd a5bf d1bd
000000b0: 4507 41be bd74 3ebe 6905 c5bd 8be9 0ebc
000000c0: b7c1 74bc d1c8 183d f03f 30bd 790e b5bd
000000d0: 1a17 e2bd 1691 d4bd 0ef7 37bd 8110 903d
000000e0: a733 473d 4437 8ebd 0a7c 043b 4ffd 1c3d
000000f0: ff0e 5f3d a323 9d3c f41b ae3d d378 9dbc
00000100: f9b1 76bd 07fc f7bb 085b 063d 7a62 093e
00000110: b005 113e b89f 913d cca9 583d a4f1 263c
00000120: a30f 183d 90d9 33bc a467 933d a53e 653d
00000130: 424d 8e3d fad5 8b3b f069 943d 34f1 893d
00000140: af62 d43d e24f f7bd 2e38 e4bd a7c3 2dbc
00000150: 90e2 e43c 3db7 c9bc 12b8 cc3d d6ec a73d
00000160: bcc2 91be 321e 49be ca6f ffbd 4f06 a93d
00000170: 1bda 233d a95d bc3c 9e3b 16be e755 b6be
00000180: b63c 7bbe 8a96 abbd 62f6 be3c 7c6a 5fbd
00000190: 521d aebd ebd4 19bd c953 54bd 6540 5e3c
000001a0: e463 313c 68dc ce3c bf30 e6bc a321 0cbe
000001b0: 9eb3 d5bc 4c1d 5c3c f6aa e53c ba93 42bc
000001c0: d5bf e2bc 9952 09bd 027f 89bd 30c1 eebc
000001d0: a688 183d ea6c 883d 5ecf 053d a6e0 adbd
000001e0: a364 74b9 b716 b43d a29b 233d 1eb1 48bc
000001f0: a64d 423d 7519 9c3d aa4e e4bb 3512 60bd
00000200: 9ab5 be3d 9e7b e33d a1da fbbd 3781 2dbd
00000210: c58e c93c 6cb6 0a3d 0815 043c b712 e63c
00000220: 34d9 013d 903a 4bbe 16f9 6ebe 5579 78bd
00000230: a3c1 683c a1bb db3c 7e22 a43d 75d0 f7bc
00000240: 0b39 44be ef02 d5bd 8b4c d3bc 55a6 ccbd
00000250: dc98 bcbd 5f18 a2bd 37e3 ee3c 1324 623d
00000260: ea80 b83c 33d7 8abc e613 fabc 333a d4bd
00000270: a3a3 c5bd 5634 2dbd 7fa9 7e3d cf01 093d
00000280: 56fa 643d 8626 74bd 120b a0bd e11f 5bbd
00000290: ee6a 67ba 81b0 a9bc 0669 21be c4dc 5abc
000002a0: 04ec 1c3d e41e dabc 4806 8cbd c456 2a3d
000002b0: 6af4 18bc acbc c3bd 5f92 5bbd fe8b 65bc
000002c0: 1bd8 1d3d d7f6 7a3d 369d 49bb abe1 3abc
000002d0: e9af 45bc 359b 453d 178b f1bc 2018 ed3c
000002e0: 34af 5c3d e657 acbd 7d33 d5bc 4252 543d
000002f0: 1b2b 783d ff0b a7b9 a01e b1ba 6f67 1f3d
00000300: a6f6 8cbc 22c7 95bc 9259 04bd f364 e9bc
00000310: a520 d13d 2f46 843c fd5d bfbc 46ae 56bd
00000320: 4f00 35be 4b8f 7fbd d4bb 7639 cdb0 d6bc
00000330: 1d1c febc dd18 21bd cf75 70bd 0316 03be
00000340: c5bb 863c cbd3 ca3d bd3e 8abd 84c1 aebd
00000350: a231 8a3d 9925 4a3d 5596 bcbd 248b 583d
00000360: a985 0f3d 468a 7b3b 34ba 30bc 2a73 d23c
00000370: 4c21 fb3d 3443 b6bc 259a 3d3d face 093d
00000380: 37c1 393d 5eae 1b3d 066e 833d 7b8f 2b3d
00000390: addd 79bd caa2 d83b 88bf bf37 a256 debc
000003a0: 63a2 513d 41f4 56bd 3912 95bd 7393 7cbd
000003b0: 8fb8 4cbd 9835 8d3c e8a7 183d ba4c 173d
000003c0: 2e9b 1ebe a472 e4bd 2449 c0bd 239e 11bd
000003d0: 22f4 83bd 40dc 91bd f83d 42bd 18a5 aebc
000003e0: 3337 983c db93 3e3c b7a7 63bd 095b 8fbc
000003f0: 25a4 6cbd 98a1 e8bd a148 b7bd b39d 8ebd
0.031322934 -0.025855493 -0.031826656 -0.092227355 -0.011320393 -0.04570181 0.025830379 -0.053455666
-0.04232919 -0.053465948 -0.015498671 -0.12736727 -0.008654381 0.061422065 -0.05928918 0.011873934
0.04712976 0.025246525 0.034674913 0.07642302 0.036757994 0.07798229 8.840853e-05 -0.005903812
0.10540951 0.055339538 -0.00999986 0.0045262803 0.025917774 0.012708789 0.10438804 -0.05691975
0.0012321663 -0.064234495 -0.024242926 0.007823444 0.08023201 0.07330046 -0.21698654 -0.094389424
-0.11362757 -0.04924016 -0.03141488 -0.102416314 -0.1885043 -0.1859922 -0.096201725 -0.008722673
-0.014938763 0.03730089 -0.043029726 -0.08840651 -0.110395625 -0.103792354 -0.044913344 0.07034398
0.048633244 -0.06944135 0.0020215535 0.03832751 0.05445766 0.019182032 0.085014254 -0.019222653
-0.06022832 -0.007567886 0.032801658 0.13416472 0.14162326 0.07110542 0.052896306 0.010189448
0.037124287 -0.010977164 0.07197502 0.055967946 0.069483295 0.0042674514 0.072467685 0.06735459
0.10370385 -0.12075783 -0.11143528 -0.010605729 0.027940065 -0.024623508 0.09996046 0.0819947
-0.28468883 -0.19640425 -0.12472494 0.082531564 0.040002923 0.02299388 -0.1467118 -0.35612413
-0.24534878 -0.083783224 0.023310844 -0.05454491 -0.08501686 -0.03755657 -0.051837716 0.013565158
0.010827038 0.025251582 -0.028099416 -0.13684706 -0.026086625 0.013434719 0.028035622 -0.011876041
-0.027679363 -0.033526037 -0.06713678 -0.029144853 0.037239693 0.06661399 0.032668464 -0.08490114
-0.00023307143 0.08793395 0.039943345 -0.012249259 0.047437333 0.07622043 -0.0069673853 -0.054704864
0.093119815 0.111075625 -0.122975595 -0.042359557 0.02460421 0.033865377 0.008061655 0.028085096
0.03170128 -0.19846559 -0.23337206 -0.060662586 0.014206323 0.026822867 0.08014391 -0.030250767
-0.19162385 -0.1040095 -0.025793334 -0.09992663 -0.09208843 -0.07914805 0.029161079 0.055210184
0.022522409 -0.016948318 -0.030527066 -0.10362663 -0.09650352 -0.04228624 0.062173363 0.03344899
0.0559028 -0.05960705 -0.078146115 -0.0534972 -0.00088278844 -0.020714046 -0.1576272 -0.013358299
0.03831102 -0.026626058 -0.068371356 0.041586652 -0.009335617 -0.09557471 -0.053606387 -0.0140104275
0.038536172 0.06127056 -0.003076387 -0.0114063425 -0.012065866 0.04824372 -0.029485269 0.028942168
0.053878024 -0.08415203 -0.026025528 0.05183626 0.060587984 -0.0003186166 -0.0013513155 0.038917
-0.017207455 -0.01828343 -0.032311983 -0.02849052 0.102113046 0.016146747 -0.023360247 -0.052412294
-0.17675899 -0.062392514 0.0002353036 -0.026207352 -0.031019265 -0.039330352 -0.0587061 -0.12801366
0.016446957 0.099036776 -0.06750248 -0.08533004 0.06747748 0.049352262 -0.09208361 0.05286707
0.035039578 0.0038381978 -0.010786582 0.02568968 0.1226221 -0.022248842 0.04628958 0.033644654
0.04535028 0.038008086 0.0641747 0.04188488 -0.061002422 0.006611203 2.2858163e-05 -0.02714092
0.051180255 -0.052479032 -0.07278866 -0.061664056 -0.049980696 0.01723747 0.037269503 0.036938407
-0.15488884 -0.111546785 -0.093889505 -0.0355512 -0.06443049 -0.071220875 -0.04742238 -0.021318957
0.018581009 0.011631931 -0.055579867 -0.017499464 -0.057773728 -0.113589466 -0.089494 -0.069636725

fc.bias f4 [10]
00000000: 60ea ae3c 3216 a53d 4a03 ad3c 0839 1dbc
00000010: 6d24 5dbc 88b0 49bc feee 02bd 509f 033a
00000020: 4fd6 58bd 304c 673c
0.021351993 0.08060874 0.021119732 -0.009596117 -0.013497454 -0.012310155 -0.031966202 0.0005020993
-0.052938756 0.014117286
